…
"line">39</span><br><span class="line">40</span><br><span class="line">41</span><br><span class="line">42</span><br><span class="line">43</span><br><span class="line">44</span><br><span class="line">45</span><br><span class="line">46</span><br><span class="line">47</span><br><span class="line">48</span><br><span class="line">49</span><br><span class="line">50</span><br><span class="line">51</span><br><span class="line">52</span><br><span class="line">53</span><br></pre></td><td class="code"><pre><span class="line">(<span class="number">10</span>): Conv(</span><br><span class="line">      (conv): Conv2d(<span class="number">1024</span>, <span class="number">512</span>, kernel_size=(<span class="number">1</span>, <span class="number">1</span>), stride=(<span class="number">1</span>, <span class="number">1</span>))</span><br><span class="line">      (act): SiLU(inplace=<span class="literal">True</span>)</span><br><span class="line">    )</span><br><span class="line">    (<span class="number">11</span>): Upsample(scale_factor=<span class="number">2.0</span>, mode=<span class="string">&#x27;nearest&#x27;</span>)</span><br><span class="line">    (<span class="number">12</span>): Concat()</span><br><span class="line">    (<span class="number">13</span>): C3(</span><br><span class="line">      (cv1): Conv(</span><br><span class="line">        (conv): Conv2d(<span class="number">1024</span>, <span class="number">256</span>, kernel_size=(<span class="number">1</span>, <span class="number">1</span>), stride=(<span class="number">1</span>, <span class="number">1</span>))</span><br><span class="line">        (act): SiLU(inplace=<span class="literal">True</span>)</span><br><span class="line">      )</span><br><span class="line">      (cv2): Conv(</span><br><span class="line">        (conv): Conv2d(<span class="number">1024</span>, <span class="number">256</span>, kernel_size=(<span class="number">1</span>, <span class="number">1</span>), stride=(<span class="number">1</span>, <span class="number">1</span>))</span><br><span class="line">        (act): SiLU(inplace=<span class="literal">True</span>)</span><br><span class="line">      )</span><br><span class="line">      (cv3): Conv(</span><br><span class="line">        (conv): Conv2d(<span class="number">512</span>, <span class="number">512</span>, kernel_size=(<span class="number">1</span>, <span class="number">1</span>), stride=(<span class="number">1</span>, <span class="number">1</span>))</span><br><span class="line">        (act): SiLU(inplace=<span class="literal">True</span>)</span><br><span class="line">      )</span><br><span class="line">      <span class="comment"># 这里BottleNeck中的卷积是256，图中有误</span></span><br><span class="line">      (m): Sequential(</span><br><span class="line">        (<span class="number">0</span>): Bottleneck(</span><br><span class="line">          (cv1): Conv(</span><br><span class="line">            (conv): Conv2d(<span class="number">256</span>, <span class="number">256</span>, kernel_size=(<span class="number">1</span>, <span class="number">1</span>), stride=(<span class="number">1</span>, <span class="number">1</span>))</span><br><span class="line">            (act): SiLU(inplace=<span class="literal">True</span>)</span><br><span class="line">          )</span><br><span class="line">          (cv2): Conv(</span><br><span class="line">            (conv): Conv2d(<span class="number">256</span>, <span class="number">256</span>, kernel_size=(<span class="number">3</span>, <span class="number">3</span>), stride=(<span class="number">1</span>, <span class="number">1</span>), padding=(<span class="number">1</span>, <span class="number">1</span>))</span><br><span class="line">            (act): SiLU(inplace=<span class="literal">True</span>)</span><br><span class="line">          )</span><br><span class="line">        )</span><br><span class="line">        (<span class="number">1</span>): Bottleneck(</span><br><span class="line">          (cv1): Conv(</span><br><span class="line">            (conv): Conv2d(<span class="number">256</span>, <span class="number">256</span>, kernel_size=(<span class="number">1</span>, <span class="number">1</span>), stride=(<span class="number">1</span>, <span class="number">1</span>))</span><br><span class="line">            (act): SiLU(inplace=<span class="literal">True</span>)</span><br><span class="line">          )</span><br><span class="line">          (cv2): Conv(</span><br><span class="line">            (conv): Conv2d(<span class="number">256</span>, <span class="number">256</span>, kernel_size=(<span class="number">3</span>, <span class="number">3</span>), stride=(<span class="number">1</span>, <span class="number">1</span>), padding=(<span class="number">1</span>, <span class="number">1</span>))</span><br><span class="line">            (act): SiLU(inplace=<span class="literal">True</span>)</span><br><span class="line">          )</span><br><span class="line">        )</span><br><span class="line">        (<span class="number">2</span>): Bottleneck(</span><br><span class="line">          (cv1): Conv(</span><br><span class="line">            (conv): Conv2d(<span class="number">256</span>, <span class="number">256</span>, kernel_size=(<span class="number">1</span>, <span class="number">1</span>), stride=(<span class="number">1</span>, <span class="number">1</span>))</span><br><span class="line">            (act): SiLU(inplace=<span class="literal">True</span>)</span><br><span class="line">          )</span><br><span class="line">          (cv2): Conv(</span><br><span class="line">            (conv): Conv2d(<span class="number">256</span>, <span class="number">256</span>, kernel_size=(<span class="number">3</span>, <span class="number">3</span>), stride=(<span class="number">1</span>, <span class="number">1</span>), padding=(<span class="number">1</span>, <span class="number">1</span>))</span><br><span class="line">            (act): SiLU(inplace=<span class="literal">True</span>)</span><br><span cla
…
3</span><br><span class="line">34</span><br><span class="line">35</span><br><span class="line">36</span><br><span class="line">37</span><br><span class="line">38</span><br><span class="line">39</span><br><span class="line">40</span><br><span class="line">41</span><br><span class="line">42</span><br><span class="line">43</span><br><span class="line">44</span><br><span class="line">45</span><br><span class="line">46</span><br></pre></td><td class="code"><pre><span class="line">(<span class="number">17</span>): C3(</span><br><span class="line">  (cv1): Conv(</span><br><span class="line">    (conv): Conv2d(<span class="number">512</span>, <span class="number">128</span>, kernel_size=(<span class="number">1</span>, <span class="number">1</span>), stride=(<span class="number">1</span>, <span class="number">1</span>))</span><br><span class="line">    (act): SiLU(inplace=<span class="literal">True</span>)</span><br><span class="line">  )</span><br><span class="line">  (cv2): Conv(</span><br><span class="line">    (conv): Conv2d(<span class="number">512</span>, <span class="number">128</span>, kernel_size=(<span class="number">1</span>, <span class="number">1</span>), stride=(<span class="number">1</span>, <span class="number">1</span>))</span><br><span class="line">    (act): SiLU(inplace=<span class="literal">True</span>)</span><br><span class="line">  )</span><br><span class="line">  (cv3): Conv(</span><br><span class="line">    (conv): Conv2d(<span class="number">256</span>, <span class="number">256</span>, kernel_size=(<span class="number">1</span>, <span class="number">1</span>), stride=(<span class="number">1</span>, <span class="number">1</span>))</span><br><span class="line">    (act): SiLU(inplace=<span class="literal">True</span>)</span><br><span class="line">  )</span><br><span class="line">  (m): Sequential(</span><br><span class="line">    (<span class="number">0</span>): Bottleneck(</span><br><span class="line">      (cv1): Conv(</span><br><span class="line">        (conv): Conv2d(<span class="number">128</span>, <span class="number">128</span>, kernel_size=(<span class="number">1</span>, <span class="number">1</span>), stride=(<span class="number">1</span>, <span class="number">1</span>))</span><br><span class="line">        (act): SiLU(inplace=<span class="literal">True</span>)</span><br><span class="line">      )</span><br><span class="line">      (cv2): Conv(</span><br><span class="line">        (conv): Conv2d(<span class="number">128</span>, <span class="number">128</span>, kernel_size=(<span class="number">3</span>, <span class="number">3</span>), stride=(<span class="number">1</span>, <span class="number">1</span>), padding=(<span class="number">1</span>, <span class="number">1</span>))</span><br><span class="line">        (act): SiLU(inplace=<span class="literal">True</span>)</span><br><span class="line">      )</span><br><span class="line">    )</span><br><span class="line">    (<span class="number">1</span>): Bottleneck(</span><br><span class="line">      (cv1): Conv(</span><br><span class="line">        (conv): Conv2d(<span class="number">128</span>, <span class="number">128</span>, kernel_size=(<span class="number">1</span>, <span class="number">1</span>), stride=(<span class="number">1</span>, <span class="number">1</span>))</span><br><span class="line">        (act): SiLU(inplace=<span class="literal">True</span>)</span><br><span class="line">      )</span><br><span class="line">      (cv2): Conv(</span><br><span class="line">        (conv): Conv2d(<span class="number">128</span>, <span class="number">128</span>, kernel_size=(<span class="number">3</span>, <span class="number">3</span>), stride=(<span class="number">1</span>, <span class="number">1</span>), padding=(<span class="number">1</span>, <span class="number">1</span>))</span><br><span class="line">        (act): SiLU(inplace=<span class="literal">True</span>)</span><br><span class="line">      )</span><br><span class="line">    )</span><br><span class="line">    (<span class="number">2</span>): Bottleneck(</span><br><span class="line">      (cv1): Conv(</span><br><span class="line">        (conv): Conv2d(<span class="number">128</span>, <span class="number">128</span>, kernel_size=(<span class="number">1</span>, <span class="number">1</span>), stride=(<span class="number">1</span>, <span class="number">1</span>))</span><br><span class="line">        (act): SiLU(inplace=<span class="literal">True</span>)</span><br><span class="line">      )</span><br><span class="line">      (cv2): Conv(</span><br><span class="line">        (conv): Conv2d(<span class="number">128</span>, <span class="number">128</span>, kernel_size=(<span class="number">3</span>, <span class="number">3</span>), stride=(<span class="number">1</span>, <span class="number">1</span>), padding=(<span class="number">1</span>, <span class="number">1</span>))</span><br><span class="line">        (act): SiLU(inplace=<span class="literal">True</span>)</span><br><span class="
…
<span class="line">33</span><br><span class="line">34</span><br><span class="line">35</span><br><span class="line">36</span><br><span class="line">37</span><br><span class="line">38</span><br><span class="line">39</span><br><span class="line">40</span><br><span class="line">41</span><br><span class="line">42</span><br><span class="line">43</span><br><span class="line">44</span><br><span class="line">45</span><br><span class="line">46</span><br></pre></td><td class="code"><pre><span class="line">(20): C3(</span><br><span class="line">      (cv1): Conv(</span><br><span class="line">        (conv): Conv2d(512, 256, kernel_size=(1, 1), stride=(1, 1))</span><br><span class="line">        (act): SiLU(inplace=True)</span><br><span class="line">      )</span><br><span class="line">      (cv2): Conv(</span><br><span class="line">        (conv): Conv2d(512, 256, kernel_size=(1, 1), stride=(1, 1))</span><br><span class="line">        (act): SiLU(inplace=True)</span><br><span class="line">      )</span><br><span class="line">      (cv3): Conv(</span><br><span class="line">        (conv): Conv2d(512, 512, kernel_size=(1, 1), stride=(1, 1))</span><br><span class="line">        (act): SiLU(inplace=True)</span><br><span class="line">      )</span><br><span class="line">      (m): Sequential(</span><br><span class="line">        (0): Bottleneck(</span><br><span class="line">          (cv1): Conv(</span><br><span class="line">            (conv): Conv2d(256, 256, kernel_size=(1, 1), stride=(1, 1))</span><br><span class="line">            (act): SiLU(inplace=True)</span><br><span class="line">          )</span><br><span class="line">          (cv2): Conv(</span><br><span class="line">            (conv): Conv2d(256, 256, kernel_size=(3, 3), stride=(1, 1), padding=(1, 1))</span><br><span class="line">            (act): SiLU(inplace=True)</span><br><span class="line">          )</span><br><span class="line">        )</span><br><span class="line">        (1): Bottleneck(</span><br><span class="line">          (cv1): Conv(</span><br><span class="line">            (conv): Conv2d(256, 256, kernel_size=(1, 1), stride=(1, 1))</span><br><span class="line">            (act): SiLU(inplace=True)</span><br><span class="line">          )</span><br><span class="line">          (cv2): Conv(</span><br><span class="line">            (conv): Conv2d(256, 256, kernel_size=(3, 3), stride=(1, 1), padding=(1, 1))</span><br><span class="line">            (act): SiLU(inplace=True)</span><br><span class="line">          )</span><br><span class="line">        )</span><br><span class="line">        (2): Bottleneck(</span><br><span class="line">          (cv1): Conv(</span><br><span class="line">            (conv): Conv2d(256, 256, kernel_size=(1, 1), stride=(1, 1))</span><br><span class="line">            (act): SiLU(inplace=True)</span><br><span class="line">          )</span><br><span class="line">          (cv2): Conv(</span><br><span class="line">            (conv): Conv2d(256, 256, kernel_size=(3, 3), stride=(1, 1), padding=(1, 1))</span><br><span class="line">            (act): SiLU(inplace=True)</span><br><span class="line">          )</span><br><span class="line">        )</span><br><span class="line">      )</span><br><span class="line">    )</span><br></pre></td></tr></table></figure><p>​通过右上角的C3模块后，输出为40* 40* 512，然后先经过一个卷积，使图像高宽减半、通道数不变，得到20* 20* 512，然后和<stro
…
"line">36</span><br><span class="line">37</span><br><span class="line">38</span><br><span class="line">39</span><br><span class="line">40</span><br><span class="line">41</span><br><span class="line">42</span><br><span class="line">43</span><br><span class="line">44</span><br><span class="line">45</span><br><span class="line">46</span><br><span class="line">47</span><br><span class="line">48</span><br><span class="line">49</span><br><span class="line">50</span><br><span class="line">51</span><br></pre></td><td class="code"><pre><span class="line">(21): Conv(</span><br><span class="line">  (conv): Conv2d(512, 512, kernel_size=(3, 3), stride=(2, 2), padding=(1, 1))</span><br><span class="line">  (act): SiLU(inplace=True)</span><br><span class="line">)</span><br><span class="line">(22): Concat()</span><br><span class="line">(23): C3(</span><br><span class="line">  (cv1): Conv(</span><br><span class="line">    (conv): Conv2d(1024, 512, kernel_size=(1, 1), stride=(1, 1))</span><br><span class="line">    (act): SiLU(inplace=True)</span><br><span class="line">  )</span><br><span class="line">  (cv2): Conv(</span><br><span class="line">    (conv): Conv2d(1024, 512, kernel_size=(1, 1), stride=(1, 1))</span><br><span class="line">    (act): SiLU(inplace=True)</span><br><span class="line">  )</span><br><span class="line">  (cv3): Conv(</span><br><span class="line">    (conv): Conv2d(1024, 1024, kernel_size=(1, 1), stride=(1, 1))</span><br><span class="line">    (act): SiLU(inplace=True)</span><br><span class="line">  )</span><br><span class="line">  (m): Sequential(</span><br><span class="line">    (0): Bottleneck(</span><br><span class="line">      (cv1): Conv(</span><br><span class="line">        (conv): Conv2d(512, 512, kernel_size=(1, 1), stride=(1, 1))</span><br><span class="line">        (act): SiLU(inplace=True)</span><br><span class="line">      )</span><br><span class="line">      (cv2): Conv(</span><br><span class="line">        (conv): Conv2d(512, 512, kernel_size=(3, 3), stride=(1, 1), padding=(1, 1))</span><br><span class="line">        (act): SiLU(inplace=True)</span><br><span class="line">      )</span><br><span class="line">    )</span><br><span class="line">    (1): Bottleneck(</span><br><span class="line">      (cv1): Conv(</span><br><span class="line">        (conv): Conv2d(512, 512, kernel_size=(1, 1), stride=(1, 1))</span><br><span class="line">        (act): SiLU(inplace=True)</span><br><span class="line">      )</span><br><span class="line">      (cv2): Conv(</span><br><span class="line">        (conv): Conv2d(512, 512, kernel_size=(3, 3), stride=(1, 1), padding=(1, 1))</span><br><span class="line">        (act): SiLU(inplace=True)</span><br><span class="line">      )</span><br><span class="line">    )</span><br><span class="line">    (2): Bottleneck(</span><br><span class="line">      (cv1): Conv(</span><br><span class="line">        (conv): Conv2d(512, 512, kernel_size=(1, 1), stride=(1, 1))</span><br><span class="line">        (act): SiLU(inplace=True)</span><br><span class="line">      )</span><br><span class="line">      (cv2): Conv(</span><br><span class="line">        (conv): Conv2d(512, 512, kernel_size=(3, 3), stride=(1, 1), padding=(1, 1))</span><br><span class="line">        (act): SiLU(inplace=True)</span><br><span class="line">      )</span><br><span class="line">    )</span><br><span class="line">  )</span><br><span class="line">)</span><br></pre></td></tr></table></figure><h4 id="三、Head结构"><a href="#三、Head结构" class="headerlink" title="三、Head结构"></a>三、Head结构</h4><p>​经过
…
      <title></title>
      <link href="/2024/04/03/yolov5s-wang-luo-jie-gou/"/>
      <url>/2024/04/03/yolov5s-wang-luo-jie-gou/</url>
      
        <content type="html"><![CDATA[<h5 id="yolov5s-网络结构"><a href="#yolov5s-网络结构" class="headerlink" title="yolov5s 网络结构"></a>yolov5s 网络结构</h5><p>Parameter name: epoch    Parameter value:-1<br>Parameter name: best_fitness     Parameter value:[    0.65574]<br>Parameter name: training_results         Parameter value:None<br>Parameter name: model    Parameter value:Model(<br>  (model): Sequential(<br>    (0): Focus(<br>      (conv): Conv(<br>        (conv): Conv2d(12, 32, kernel_size&#x3D;(3, 3), stride&#x3D;(1, 1), padding&#x3D;(1, 1), bias&#x3D;False)<br>        (bn): BatchNorm2d(32, eps&#x3D;0.001, momentum&#x3D;0.03, affine&#x3D;True, track_running_stats&#x3D;True)<br>        (act): SiLU()<br>      )<br>    )<br>    (1): Conv(<br>      (conv): Conv2d(32, 64, kernel_size&#x3D;(3, 3), stride&#x3D;(2, 2), padding&#x3D;(1, 1), bias&#x3D;False)<br>      (bn): BatchNorm2d(64, eps&#x3D;0.001, momentum&#x3D;0.03, affine&#x3D;True, track_running_stats&#x3D;True)<br>      (act): SiLU()<br>    )<br>    (2): C3(<br>      (cv1): Conv(<br>        (conv): Conv2d(64, 32, kernel_size&#x3D;(1, 1), stride&#x3D;(1, 1), bias&#x3D;False)<br>        (bn): BatchNorm2d(32, eps&#x3D;0.001, momentum&#x3D;0.03, affine&#x3D;True, track_running_stats&#x3D;True)<br>        (act): SiLU()<br>      )<br>      (cv2): Conv(<br>        (conv): Conv2d(64, 32, kernel_size&#x3D;(1, 1), stride&#x3D;(1, 1), bias&#x3D;False)<br>        (bn): BatchNorm2d(32, eps&#x3D;0.001, momentum&#x3D;0.03, affine&#x3D;True, track_running_stats&#x3D;True)<br>        (act): SiLU()<br>      )<br>      (cv3): Conv(<br>        (conv): Conv2d(64, 64, kernel_size&#x3D;(1, 1), stride&#x3D;(1, 1), bias&#x3D;False)<br>        (bn): BatchNorm2d(64, eps&#x3D;0.001, momentum&#x3D;0.03, affine&#x3D;True, track_running_stats&#x3D;True)<br>        (act): SiLU()<br>      )<br>      (m): Sequential(<br>        (0): Bottleneck(<br>          (cv1): Conv(<br>            (conv): Conv2d(32, 32, kernel_size&#x3D;(1, 1), stride&#x3D;(1, 1), bias&#x3D;False)<br>            (bn): BatchNorm2d(32, eps&#x3D;0.001, momentum&#x3D;0.03, affine&#x3D;True, track_running_stats&#x3D;True)<br>            (act): SiLU()<br>          )<br>          (cv2): Conv(<br>            (conv): Conv2d(32, 32, kernel_size&#x3D;(3, 3), stride&#x3D;(1, 1), padding&#x3D;(1, 1), bias&#x3D;False)<br>            (bn): BatchNorm2d(32, eps&#x3D;0.001, momentum&#x3D;0.03, affine&#x3D;True, track_running_stats&#x3D;True)<br>            (act): SiLU()<br>          )<br>        )<br>      )<br>    )<br>    (3): Conv(<br>      (conv): Conv2d(64, 128, kernel_size&#x3D;(3, 3), stride&#x3D;(2, 2), padding&#x3D;(1, 1), bias&#x3D;False)<br>      (bn): BatchNorm2d(128, eps&#x3D;0.001, momentum&#x3D;0.03, affine&#x3D;True, track_running_stats&#x3D;True)<br>      (act): SiLU()<br>    )<br>    (4): C3(<br>      (cv1): Conv(<br>        (conv): Conv2d(128, 64, kernel_size&#x3D;(1, 1), stride&#x3D;(1, 1), bias&#x3D;False)<br>        (bn): BatchNorm2d(64, eps&#x3D;0.001, momentum&#x3D;0.03, affine&#x3D;True, track_running_stats&#x3D;True)<br>        (act): SiLU()<br>      )<br>      (cv2): Conv(<br>        (conv): Conv2d(128, 64, kernel_size&#x3D;(1, 1), stride&#x3D;(1, 1), bias&#x3D;False)<br>        (bn): BatchNorm2d(64, eps&#x3D;0.001, momentum&#x3D;0.03, affine&#x3D;True, track_running_stats&#x3D;True)<br>        (act): SiLU()<br>      )<br>      (cv3): Conv(<br>        (conv): Conv2d(128, 128, kernel_size&#x3D;(1, 1), stride&#x3D;(1, 1), bias&#x3D;False)<br>        (bn): BatchNorm2d(128, eps&#x3D;0.001, momentum&#x3D;0.03, affine&#x3D;True, track_running_stats&#x3D;True)<br>        (act): SiLU()<br>      )<br>      (m): Sequential(<br>        (0): Bottleneck(<br>          (cv1): Conv(<br>            (conv): Conv2d(64, 64, kernel_size&#x3D;(1, 1), stride&#x3D;(1, 1), bias&#x3D;False)<br>            (bn): BatchNorm2d(64, eps&#x3D;0.001, momentum&#x3D;0.03, affine&#x3D;True, track_running_stats&#x3D;True)<br>            (act): SiLU()<br>          )<br>          (cv2): Conv(<br>            (conv): Conv2d(64, 64, kernel_size&#x3D;(3, 3), stride&#x3D;(1, 1), padding&#x3D;(1, 1), bias&#x3D;False)<br>            (bn): BatchNorm2d(64, eps&#x3D;0.001, momentum&#x3D;0.03, affine&#x3D;True, track_running_stats&#x3D;True)<br>            (act): SiLU()<br>          )<br>        )<br>        (1): Bottleneck(<br>          (cv1): Conv(<br>            (conv): Conv2d(64, 64, kernel_size&#x3D;(1, 1), stride&#x3D;(1, 1), bias&#x3D;False)<br>            (bn): BatchNorm2d(64, eps&#x3D;0.001, momentum&#x3D;0.03, affine&#x3D;True, track_running_stats&#x3D;True)<br>            (act): SiLU()<br>          )<br>          (cv2): Conv(<br>            (conv): Conv2d(64, 64, kernel_size&#x3D;(3, 3), stride&#x3D;(1, 1), padding&#x3D;(1, 1), bias&#x3D;False)<br>            (bn): BatchNorm2d(64, eps&#x3D;0.001, momentum&#x3D;0.03, affine&#x3D;True, track_running_stats&#x3D;True)<br>            (act): SiLU()<br>          )<br>        )<br>        (2): Bottleneck(<br>          (cv1): Conv(<br>            (conv): Conv2d(64, 64, kernel_size&#x3D;(1, 1), stride&#x3D;(1, 1), bias&#x3D;False)<br>            (bn): BatchNorm2d(64, eps&#x3D;0.001, momentum&#x3D;0.03, affine&#x3D;True, track_running_stats&#x3D;True)<br>            (act): SiLU()<br>          )<br>          (cv2): Conv(<br>            (conv): Conv2d(64, 64, kernel_size&#x3D;(3, 3), stride&#x3D;(1, 1), padding&#x3D;(1, 1), bias&#x3D;False)<br>            (bn): BatchNorm2d(64, eps&#x3D;0.001, momentum&#x3D;0.03, affine&#x3D;True, track_running_stats&#x3D;True)<br>            (act): SiLU()<br>          )<br>        )<br>      )<br>    )<br>    (5): Conv(<br>      (conv): Conv2d(128, 256, kernel_size&#x3D;(3, 3), stride&#x3D;(2, 2), padding&#x3D;(1, 1), bias&#x3D;False)<br>      (bn): BatchNorm2d(256, eps&#x3D;0.001, momentum&#x3D;0.03, affine&#x3D;True, track_running_stats&#x3D;True)<br>      (act): SiLU()<br>    )<br>    (6): C3(<br>      (cv1): Conv(<br>        (conv): Conv2d(256, 128, kernel_size&#x3D;(1, 1), stride&#x3D;(1, 1), bias&#x3D;False)<br>        (bn): BatchNorm2d(128, eps&#x3D;0.001, momentum&#x3D;0.03, affine&#x3D;True, track_running_stats&#x3D;True)<br>        (act): SiLU()<br>      )<br>      (cv2): Conv(<br>        (conv): Conv2d(256, 128, kernel_size&#x3D;(1, 1), stride&#x3D;(1, 1), bias&#x3D;False)<br>        (bn): BatchNorm2d(128, eps&#x3D;0.001, momentum&#x3D;0.03, affine&#x3D;True, track_running_stats&#x3D;True)<br>        (act): SiLU()<br>      )<br>      (cv3): Conv(<br>        (conv): Conv2d(256, 256, kernel_size&#x3D;(1, 1), stride&#x3D;(1, 1), bias&#x3D;False)<br>        (bn): BatchNorm2d(256, eps&#x3D;0.001, momentum&#x3D;0.03, affine&#x3D;True, track_running_stats&#x3D;True)<br>        (act): SiLU()<br>      )<br>      (m): Sequential(<br>        (0): Bottleneck(<br>          (cv1): Conv(<br>            (conv): Conv2d(128, 128, kernel_size&#x3D;(1, 1), stride&#x3D;(1, 1), bias&#x3D;False)<br>            (bn): BatchNorm2d(128, eps&#x3D;0.001, momentum&#x3D;0.03, affine&#x3D;True, track_running_stats&#x3D;True)<br>            (act): SiLU()<br>          )<br>          (cv2): Conv(<br>            (conv): Conv2d(128, 128, kernel_size&#x3D;(3, 3), stride&#x3D;(1, 1), padding&#x3D;(1, 1), bias&#x3D;False)<br>            (bn): BatchNorm2d(128, eps&#x3D;0.001, momentum&#x3D;0.03, affine&#x3D;True, track_running_stats&#x3D;True)<br>            (act): SiLU()<br>          )<br>        )<br>        (1): Bottleneck(<br>          (cv1): Conv(<br>            (conv): Conv2d(128, 128, kernel_size&#x3D;(1, 1), stride&#x3D;(1, 1), bias&#x3D;False)<br>            (bn): BatchNorm2d(128, eps&#x3D;0.001, momentum&#x3D;0.03, affine&#x3D;True, track_running_stats&#x3D;True)<br>            (act): SiLU()<br>          )<br>          (cv2): Conv(<br>            (conv): Conv2d(128, 128, kernel_size&#x3D;(3, 3), stride&#x3D;(1, 1), padding&#x3D;(1, 1), bias&#x3D;False)<br>            (bn): BatchNorm2d(128, eps&#x3D;0.001, momentum&#x3D;0.03, affine&#x3D;True, track_running_stats&#x3D;True)<br>            (act): SiLU()<br>          )<br>        )<br>        (2): Bottleneck(<br>          (cv1): Conv(<br>            (conv): Conv2d(128, 128, kernel_size&#x3D;(1, 1), stride&#x3D;(1, 1), bias&#x3D;False)<br>            (bn): BatchNorm2d(128, eps&#x3D;0.001, momentum&#x3D;0.03, affine&#x3D;True, track_running_stats&#x3D;True)<br>            (act): SiLU()<br>          )<br>          (cv2): Conv(<br>            (conv): Conv2d(128, 128, kernel_size&#x3D;(3, 3), stride&#x3D;(1, 1), padding&#x3D;(1, 1), bias&#x3D;False)<br>            (bn): BatchNorm2d(128, eps&#x3D;0.001, momentum&#x3D;0.03, affine&#x3D;True, track_running_stats&#x3D;True)<br>            (act): SiLU()<br>          )<br>        )<br>      )<br>    )<br>    (7): Conv(<br>      (conv): Conv2d(256, 512, kernel_size&#x3D;(3, 3), stride&#x3D;(2, 2), padding&#x3D;(1, 1), bias&#x3D;False)<br>      (bn): BatchNorm2d(512, eps&#x3D;0.001, momentum&#x3D;0.03, affine&#x3D;True, track_running_stats&#x3D;True)<br>      (act): SiLU()<br>    )<br>    (8): SPP(<br>      (cv1): Conv(<br>        (conv): Conv2d(512, 256, kernel_size&#x3D;(1, 1), stride&#x3D;(1, 1), bias&#x3D;False)<br>        (bn): BatchNorm2d(256, eps&#x3D;0.001, momentum&#x3D;0.03, affine&#x3D;True, track_running_stats&#x3D;True)<br>        (act): SiLU()<br>      )<br>      (cv2): Conv(<br>        (conv): Conv2d(1024, 512, kernel_size&#x3D;(1, 1), stride&#x3D;(1, 1), bias&#x3D;False)<br>        (bn): BatchNorm2d(512, eps&#x3D;0.001, momentum&#x3D;0.03, affine&#x3D;True, track_running_stats&#x3D;True)<br>        (act): SiLU()<br>      )<br>      (m): ModuleList(<br>        (0): MaxPool2d(kernel_size&#x3D;5, stride&#x3D;1, padding&#x3D;2, dilation&#x3D;1, ceil_mode&#x3D;False)<br>        (1): MaxPool2d(kernel_size&#x3D;9, stride&#x3D;1, padding&#x3D;4, dilation&#x3D;1, ceil_mode&#x3D;False)<br>        (2): MaxPool2d(kernel_size&#x3D;13, stride&#x3D;1, padding&#x3D;6, dilation&#x3D;1, ceil_mode&#x3D;False)<br>      )<br>    )<br>    (9): C3(<br>      (cv1): Conv(<br>        (conv): Conv2d(512, 256, kernel_size&#x3D;(1, 1), stride&#x3D;(1, 1), bias&#x3D;False)<br>        (bn): BatchNorm2d(256, eps&#x3D;0.001, momentum&#x3D;0.03, affine&#x3D;True, track_running_stats&#x3D;True)<br>        (act): SiLU()<br>      )<br>      (cv2): Conv(<br>        (conv): Conv2d(512, 256, kernel_size&#x3D;(1, 1), stride&#x3D;(1, 1), bias&#x3D;False)<br>        (bn): BatchNorm2d(256, eps&#x3D;0.001, momentum&#x3D;0.03, affine&#x3D;True, track_running_stats&#x3D;True)<br>        (act): SiLU()<br>      )<br>      (cv3): Conv(<br>        (conv): Conv2d(512, 512, kernel_size&#x3D;(1, 1), stride&#x3D;(1, 1), bias&#x3D;False)<br>        (bn): BatchNorm2d(512, eps&#x3D;0.001, momentum&#x3D;0.03, affine&#x3D;True, track_running_stats&#x3D;True)<br>        (act): SiLU()<br>      )<br>      (m): Sequential(<br>        (0): Bottleneck(<br>          (cv1): Conv(<br>            (conv): Conv2d(256, 256, kernel_size&#x3D;(1, 1), stride&#x3D;(1, 1), bias&#x3D;False)<br>            (bn): BatchNorm2d(256, eps&#x3D;0.001, momentum&#x3D;0.03, affine&#x3D;True, track_running_stats&#x3D;True)<br>            (act): SiLU()<br>          )<br>          (cv2): Conv(<br>            (conv): Conv2d(256, 256, kernel_size&#x3D;(3, 3), stride&#x3D;(1, 1), padding&#x3D;(1, 1), bias&#x3D;False)<br>            (bn): BatchNorm2d(256, eps&#x3D;0.001, momentum&#x3D;0.03, affine&#x3D;True, track_running_stats&#x3D;True)<br>            (act): SiLU()<br>          )<br>        )<br>      )<br>    )<br>    (10): Conv(<br>      (conv): Conv2d(512, 256, kernel_size&#x3D;(1, 1), stride&#x3D;(1, 1), bias&#x3D;False)<br>      (bn): BatchNorm2d(256, eps&#x3D;0.001, momentum&#x3D;0.03, affine&#x3D;True, track_running_stats&#x3D;True)<br>      (act): SiLU()<br>    )<br>    (11): Upsample(scale_factor&#x3D;2.0, mode&#x3D;’nearest’)<br>    (12): Concat()<br>    (13): C3(<br>      (cv1): Conv(<br>        (conv): Conv2d(512, 128, kernel_size&#x3D;(1, 1), stride&#x3D;(1, 1), bias&#x3D;False)<br>        (bn): BatchNorm2d(128, eps&#x3D;0.001, momentum&#x3D;0.03, affine&#x3D;True, track_running_stats&#x3D;True)<br>        (act): SiLU()<br>      )<br>      (cv2): Conv(<br>        (conv): Conv2d(512, 128, kernel_size&#x3D;(1, 1), stride&#x3D;(1, 1), bias&#x3D;False)<br>        (bn): BatchNorm2d(128, eps&#x3D;0.001, momentum&#x3D;0.03, affine&#x3D;True, track_running_stats&#x3D;True)<br>        (act): SiLU()<br>      )<br>      (cv3): Conv(<br>        (conv): Conv2d(256, 256, kernel_size&#x3D;(1, 1), stride&#x3D;(1, 1), bias&#x3D;False)<br>        (bn): BatchNorm2d(256, eps&#x3D;0.001, momentum&#x3D;0.03, affine&#x3D;True, track_running_stats&#x3D;True)<br>        (act): SiLU()<br>      )<br>      (m): Sequential(<br>        (0): Bottleneck(<br>          (cv1): Conv(<br>            (conv): Conv2d(128, 128, kernel_size&#x3D;(1, 1), stride&#x3D;(1, 1), bias&#x3D;False)<br>            (bn): BatchNorm2d(128, eps&#x3D;0.001, momentum&#x3D;0.03, affine&#x3D;True, track_running_stats&#x3D;True)<br>            (act): SiLU()<br>          )<br>          (cv2): Conv(<br>            (conv): Conv2d(128, 128, kernel_size&#x3D;(3, 3), stride&#x3D;(1, 1), padding&#x3D;(1, 1), bias&#x3D;False)<br>            (bn): BatchNorm2d(128, eps&#x3D;0.001, momentum&#x3D;0.03, affine&#x3D;True, track_running_stats&#x3D;True)<br>            (act): SiLU()<br>          )<br>        )<br>      )<br>    )<br>    (14): Conv(<br>      (conv): Conv2d(256, 128, kernel_size&#x3D;(1, 1), stride&#x3D;(1, 1), bias&#x3D;False)<br>      (bn): BatchNorm2d(128, eps&#x3D;0.001, momentum&#x3D;0.03, affine&#x3D;True, track_running_stats&#x3D;True)<br>      (act): SiLU()<br>    )<br>    (15): Upsample(scale_factor&#x3D;2.0, mode&#x3D;’nearest’)<br>    (16): Concat()<br>    (17): C3(<br>      (cv1): Conv(<br>        (conv): Conv2d(256, 64, kernel_size&#x3D;(1, 1), stride&#x3D;(1, 1), bias&#x3D;False)<br>        (bn): BatchNorm2d(64, eps&#x3D;0.001, momentum&#x3D;0.03, affine&#x3D;True, track_running_stats&#x3D;True)<br>        (act): SiLU()<br>      )<br>      (cv2): Conv(<br>        (conv): Conv2d(256, 64, kernel_size&#x3D;(1, 1), stride&#x3D;(1, 1), bias&#x3D;False)<br>        (bn): BatchNorm2d(64, eps&#x3D;0.001, momentum&#x3D;0.03, affine&#x3D;True, track_running_stats&#x3D;True)<br>        (act): SiLU()<br>      )<br>      (cv3): Conv(<br>        (conv): Conv2d(128, 128, kernel_size&#x3D;(1, 1), stride&#x3D;(1, 1), bias&#x3D;False)<br>        (bn): BatchNorm2d(128, eps&#x3D;0.001, momentum&#x3D;0.03, affine&#x3D;True, track_running_stats&#x3D;True)<br>        (act): SiLU()<br>      )<br>      (m): Sequential(<br>        (0): Bottleneck(<br>          (cv1): Conv(<br>            (conv): Conv2d(64, 64, kernel_size&#x3D;(1, 1), stride&#x3D;(1, 1), bias&#x3D;False)<br>            (bn): BatchNorm2d(64, eps&#x3D;0.001, momentum&#x3D;0.03, affine&#x3D;True, track_running_stats&#x3D;True)<br>            (act): SiLU()<br>          )<br>          (cv2): Conv(<br>            (conv): Conv2d(64, 64, kernel_size&#x3D;(3, 3), stride&#x3D;(1, 1), padding&#x3D;(1, 1), bias&#x3D;False)<br>            (bn): BatchNorm2d(64, eps&#x3D;0.001, momentum&#x3D;0.03, affine&#x3D;True, track_running_stats&#x3D;True)<br>            (act): SiLU()<br>          )<br>        )<br>      )<br>    )<br>    (18): Conv(<br>      (conv): Conv2d(128, 128, kernel_size&#x3D;(3, 3), stride&#x3D;(2, 2), padding&#x3D;(1, 1), bias&#x3D;False)<br>      (bn): BatchNorm2d(128, eps&#x3D;0.001, momentum&#x3D;0.03, affine&#x3D;True, track_running_stats&#x3D;True)<br>      (act): SiLU()<br>    )<br>    (19): Concat()<br>    (20): C3(<br>      (cv1): Conv(<br>        (conv): Conv2d(256, 128, kernel_size&#x3D;(1, 1), stride&#x3D;(1, 1), bias&#x3D;False)<br>        (bn): BatchNorm2d(128, eps&#x3D;0.001, momentum&#x3D;0.03, affine&#x3D;True, track_running_stats&#x3D;True)<br>        (act): SiLU()<br>      )<br>      (cv2): Conv(<br>        (conv): Conv2d(256, 128, kernel_size&#x3D;(1, 1), stride&#x3D;(1, 1), bias&#x3D;False)<br>        (bn): BatchNorm2d(128, eps&#x3D;0.001, momentum&#x3D;0.03, affine&#x3D;True, track_running_stats&#x3D;True)<br>        (act): SiLU()<br>      )<br>      (cv3): Conv(<br>        (conv): Conv2d(256, 256, kernel_size&#x3D;(1, 1), stride&#x3D;(1, 1), bias&#x3D;False)<br>        (bn): BatchNorm2d(256, eps&#x3D;0.001, momentum&#x3D;0.03, affine&#x3D;True, track_running_stats&#x3D;True)<br>        (act): SiLU()<br>      )<br>      (m): Sequential(<br>        (0): Bottleneck(<br>          (cv1): Conv(<br>            (conv): Conv2d(128, 128, kernel_size&#x3D;(1, 1), stride&#x3D;(1, 1), bias&#x3D;False)<br>            (bn): BatchNorm2d(128, eps&#x3D;0.001, momentum&#x3D;0.03, affine&#x3D;True, track_running_stats&#x3D;True)<br>            (act): SiLU()<br>          )<br>          (cv2): Conv(<br>            (conv): Conv2d(128, 128, kernel_size&#x3D;(3, 3), stride&#x3D;(1, 1), padding&#x3D;(1, 1), bias&#x3D;False)<br>            (bn): BatchNorm2d(128, eps&#x3D;0.001, momentum&#x3D;0.03, affine&#x3D;True, track_running_stats&#x3D;True)<br>            (act): SiLU()<br>          )<br>        )<br>      )<br>    )<br>    (21): Conv(<br>      (conv): Conv2d(256, 256, kernel_size&#x3D;(3, 3), stride&#x3D;(2, 2), padding&#x3D;(1, 1), bias&#x3D;False)<br>      (bn): BatchNorm2d(256, eps&#x3D;0.001, momentum&#x3D;0.03, affine&#x3D;True, track_running_stats&#x3D;True)<br>      (act): SiLU()<br>    )<br>    (22): Concat()<br>    (23): C3(<br>      (cv1): Conv(<br>        (conv): Conv2d(512, 256, kernel_size&#x3D;(1, 1), stride&#x3D;(1, 1), bias&#x3D;False)<br>        (bn): BatchNorm2d(256, eps&#x3D;0.001, momentum&#x3D;0.03, affine&#x3D;True, track_running_stats&#x3D;True)<br>        (act): SiLU()<br>      )<br>      (cv2): Conv(<br>        (conv): Conv2d(512, 256, kernel_size&#x3D;(1, 1), stride&#x3D;(1, 1), bias&#x3D;False)<br>        (bn): BatchNorm2d(256, eps&#x3D;0.001, momentum&#x3D;0.03, affine&#x3D;True, track_running_stats&#x3D;True)<br>        (act): SiLU()<br>      )<br>      (cv3): Conv(<br>        (conv): Conv2d(512, 512, kernel_size&#x3D;(1, 1), stride&#x3D;(1, 1), bias&#x3D;False)<br>        (bn): BatchNorm2d(512, eps&#x3D;0.001, momentum&#x3D;0.03, affine&#x3D;True, track_running_stats&#x3D;True)<br>        (act): SiLU()<br>      )<br>      (m): Sequential(<br>        (0): Bottleneck(<br>          (cv1): Conv(<br>            (conv): Conv2d(256, 256, kernel_size&#x3D;(1, 1), stride&#x3D;(1, 1), bias&#x3D;False)<br>            (bn): BatchNorm2d(256, eps&#x3D;0.001, momentum&#x3D;0.03, affine&#x3D;True, track_running_stats&#x3D;True)<br>            (act): SiLU()<br>          )<br>          (cv2): Conv(<br>            (conv): Conv2d(256, 256, kernel_size&#x3D;(3, 3), stride&#x3D;(1, 1), padding&#x3D;(1, 1), bias&#x3D;False)<br>            (bn): BatchNorm2d(256, eps&#x3D;0.001, momentum&#x3D;0.03, affine&#x3D;True, track_running_stats&#x3D;True)<br>            (act): SiLU()<br>          )<br>        )<br>      )<br>    )<br>    (24): Detect(<br>      (m): ModuleList(<br>        (0): Conv2d(128, 21, kernel_size&#x3D;(1, 1), stride&#x3D;(1, 1))<br>        (1): Conv2d(256, 21, kernel_size&#x3D;(1, 1), stride&#x3D;(1, 1))<br>        (2): Conv2d(512, 21, kernel_size&#x3D;(1, 1), stride&#x3D;(1, 1))<br>      )<br>    )<br>  )<br>)<br>Parameter name: ema      Parameter value:None<br>Parameter name: updates          Parameter value:None<br>Parameter name: optimizer        Parameter value:None<br>Parameter name: wandb_id         Parameter value:None</p><h5 id="各层参数的形状"><a href="#各层参数的形状" class="headerlink" title="各层参数的形状"></a>各层参数的形状</h5><p>m
…
