…
model.23.cv3.conv.weight torch.Size([512, 512, 1, 1])
model.23.cv3.conv.bias torch.Size([512]) model.23.m.0.cv1.conv.weight
torch.Size([256, 256, 1, 1]) model.23.m.0.cv1.conv.bias
torch.Size([256]) model.23.m.0.cv2.conv.weight torch.Size([256, 256, 3,
3]) model.23.m.0.cv2.conv.bias torch.Size([256]) model.24.m.0.weight
torch.Size([21, 128, 1, 1]) model.24.m.0.bias torch.Size([21])
model.24.m.1.weight torch.Size([21, 256, 1, 1]) model.24.m.1.bias
torch.Size([21]) model.24.m.2.weight torch.Size([21, 512, 1, 1])
model.24.m.2.bias torch.Size([21])
输入为640* 640*
3时，各层输出形状
Layer (type:depth-idx)
Output Shape Param
Model [1, 25200, 7] -- ├─Sequential: 1-1 -- -- │ └─Focus: 2-1 [1, 32,
320, 320] -- │ │ └─Conv: 3-1 [1, 32, 320, 320] (3,488) │ └─Conv: 2-2 [1,
64, 160, 160] -- │ │ └─Conv2d: 3-2 [1, 64, 160, 160] (18,496) │ │
└─SiLU: 3-3 [1, 64, 160, 160] -- │ └─C3: 2-3 [1, 64, 160, 160] -- │ │
└─Conv: 3-4 [1, 32, 160, 160] (2,080) │ │ └─Sequential: 3-5 [1, 32, 160,
160] (10,304) │ │ └─Conv: 3-6 [1, 32, 160, 160] (2,080) │ │ └─Conv: 3-7
[1, 64, 160, 160] (4,160) │ └─Conv: 2-4 [1, 128, 80, 80] -- │ │
└─Conv2d: 3-8 [1, 128, 80, 80] (73,856) │ │ └─SiLU: 3-9 [1, 128, 80, 80]
-- │ └─C3: 2-5 [1, 128, 80, 80] -- │ │ └─Conv: 3-10 [1, 64, 80, 80]
(8,256) │ │ └─Sequential: 3-11 [1, 64, 80, 80] (123,264) │ │ └─Conv:
3-12 [1, 64, 80, 80] (8,256) │ │ └─Conv: 3-13 [1, 128, 80, 80] (16,512)
│ └─Conv: 2-6 [1, 256, 40, 40] -- │ │ └─Conv2d: 3-14 [1, 256, 40, 40]
(295,168) │ │ └─SiLU: 3-15 [1, 256, 40, 40] -- │ └─C3: 2-7 [1, 256, 40,
40] -- │ │ └─Conv: 3-16 [1, 128, 40, 40] (32,896) │ │ └─Sequential: 3-17
[1, 128, 40, 40] (492,288) │ │ └─Conv: 3-18 [1, 128, 40, 40] (32,896) │
│ └─Conv: 3-19 [1, 256, 40, 40] (65,792) │ └─Conv: 2-8 [1, 512, 20, 20]
-- │ │ └─Conv2d: 3-20 [1, 512, 20, 20] (1,180,160) │ │ └─SiLU: 3-21 [1,
512, 20, 20] -- │ └─SPP: 2-9 [1, 512, 20, 20] -- │ │ └─Conv: 3-22 [1,
256, 20, 20] (131,328) │ │ └─ModuleList: 3-23 -- -- │ │ └─Conv: 3-24 [1,
512, 20, 20] (524,800) │ └─C3: 2-10 [1, 512, 20, 20] -- │ │ └─Conv: 3-25
[1, 256, 20, 20] (131,328) │ │ └─Sequential: 3-26 [1, 256, 20, 20]
(655,872) │ │ └─Conv: 3-27 [1, 256, 20, 20] (131,328) │ │ └─Conv: 3-28
[1, 512, 20, 20] (262,656) │ └─Conv: 2-11 [1, 256, 20, 20] -- │ │
└─Conv2d: 3-29 [1, 256, 20, 20] (131,328) │ │ └─SiLU: 3-30 [1, 256, 20,
20] -- │ └─Upsample: 2-12 [1, 256, 40, 40] -- │ └─Concat: 2-13 [1, 512,
40, 40] -- │ └─C3: 2-14 [1, 256, 40, 40] -- │ │ └─Conv: 3-31 [1, 128,
40, 40] (65,664) │ │ └─Sequential: 3-32 [1, 128, 40, 40] (164,096) │ │
└─Conv: 3-33 [1, 128, 40, 40] (65,664) │ │ └─Conv: 3-34 [1, 256, 40, 40]
(65,792) │ └─Conv: 2-15 [1, 128, 40, 40] -- │ │ └─Conv2d: 3-35 [1, 128,
40, 40] (32,896) │ │ └─SiLU: 3-36 [1, 128, 40, 40] -- │ └─Upsample: 2-16
[1, 128, 80, 80] -- │ └─Concat: 2-17 [1, 256, 80, 80] -- │ └─C3: 2-18
[1, 128, 80, 80] -- │ │ └─Conv: 3-37 [1, 64, 80, 80] (16,448) │ │
└─Sequential: 3-38 [1, 64, 80, 80] (41,088) │ │ └─Conv: 3-39 [1, 64, 80,
80] (16,448) │ │ └─Conv: 3-40 [1, 128, 80, 80] (16,512) │ └─Conv: 2-19
[1, 128, 40, 40] -- │ │ └─Conv2d: 3-41 [1, 128, 40, 40] (147,584) │ │
└─SiLU: 3-42 [1, 128, 40, 40] -- │ └─Concat: 2-20 [1, 256, 40, 40] -- │
└─C3: 2-21 [1, 256, 40, 40] -- │ │ └─Conv: 3-43 [1, 128, 40, 40]
(32,896) │ │ └─Sequential: 3-44 [1, 128, 40, 40] (164,096) │ │ └─Conv:
3-45 [1, 128, 40, 40] (32,896) │ │ └─Conv: 3-46 [1, 256, 40, 40]
(65,792) │ └─Conv: 2-22 [1, 256, 20, 20] -- │ │ └─Conv2d: 3-47 [1, 256,
20, 20] (590,080) │ │ └─SiLU: 3-48 [1, 256, 20, 20] -- │ └─Concat: 2-23
[1, 512, 20, 20] -- │ └─C3: 2-24 [1, 512, 20, 20] -- │ │ └─Conv: 3-49
[1, 256, 20, 20] (131,328) │ │ └─Sequential: 3-50 [1, 256, 20, 20]
(655,872) │ │ └─Conv: 3-51 [1, 256, 20, 20] (131,328) │ │ └─Conv: 3-52
[1, 512, 20, 20] (262,656) │ └─Detect: 2-25 [1, 25200, 7] --
│ │ └─ModuleList: 3-53 --
(18,879)
]]></content>
  </entry>
  <entry>
    <title>正则表达式</title>
    <url>/2025/06/18/zheng-ze-biao-da-shi/</url>
    <content><![CDATA[一、正则表达式
​
简单理解正则表达式就是用来匹配一段字符串中自己想要的部分的匹配规则，从一段长字符串中抽取想要的关键信息
1、字符组
​
字符组用[]括起来。在[]中出现的内容会被匹配，例如[abc]匹配a或b或c，字符组内容过多时还可以使用-，例如[a-z]表示a到z之间所有小写字母，[0-9]表示匹配0到9的所有阿拉伯数字
2、简单元字符
.	匹配除了换行符以外的任意字符\w	匹配字母、数字、下划线\s	匹配任意的空白符\d	匹配数字\n	匹配一个换行符\t	匹配一个制表符^	匹配字符串的开始$	匹配字符串的结尾\W	匹配非 字母、数字、下划线（和\w相反）\D	匹配非数字\S	匹配非空白符a|b	匹配字符a或字符b()	匹配括号内的表达式，也表示一个组[...]	匹配字符组中的字符[^...]	匹配除了字符组中字符	的所有字符
…
