…
;&lt; \"\u6392\u5e8f\u540e: \";\n    for (int num : arr) {\n        std::cout &lt;&lt; num &lt;&lt; \" \";\n    }\n    std::cout &lt;&lt; std::endl;\n\n    return 0;\n}\n</code></pre>"},{"location":"blog/Computer%20Science/%E6%8E%92%E5%BA%8F%E5%92%8C%E6%9F%A5%E6%89%BE/#_16","title":"\u4ee3\u7801\u6267\u884c\u8fc7\u7a0b\u793a\u4f8b","text":"<p>\u4ee5\u6570\u7ec4 <code>[12, 11, 13, 5, 6]</code> \u4e3a\u4f8b\uff1a</p> <ol> <li>\u521d\u59cb\u72b6\u6001\uff1a[12] | 11, 13, 5, 6</li> <li> <p>\u53d6\u51fa 11\uff0c\u4e0e 12 \u6bd4\u8f83\uff0c12 &gt; 11\uff0c12 \u540e\u79fb\uff0c\u63d2\u5165 11 \u2192 [11, 12] | 13, 5, 6</p> </li> <li> <p>\u7b2c\u4e8c\u8f6e\uff1a[11, 12] | 13, 5, 6</p> </li> <li> <p>\u53d6\u51fa 13\uff0c\u4e0e 12 \u6bd4\u8f83\uff0c12 &lt; 13\uff0c\u76f4\u63a5\u63d2\u5165 \u2192 [11, 12, 13] | 5, 6</p> </li> <li> <p>\u7b2c\u4e09\u8f6e\uff1a[11, 12, 13] | 5, 6</p> </li> <li> <p>\u53d6\u51fa 5\uff0c\u4f9d\u6b21\u4e0e 13\u300112\u300111 \u6bd4\u8f83\uff0c\u90fd &gt; 5\uff0c\u5168\u90e8\u540e\u79fb\uff0c\u63d2\u5165 5 \u2192 [5, 11, 12, 13] | 6</p> </li> <li> <p>\u7b2c\u56db\u8f6e\uff1a[5, 11, 12, 13] | 6</p> </li> <li>\u53d6\u51fa 6\uff0c\u4e0e 13 \u6bd4\u8f83\uff0c13 &gt; 6\uff0c\u540e\u79fb\uff1b\u4e0e 12 \u6bd4\u8f83\uff0c12 &gt; 6\uff0c\u540e\u79fb\uff1b\u4e0e 11 \u6bd4\u8f83\uff0c11 &gt; 6\uff0c\u540e\u79fb\uff1b\u4e0e 5 \u6bd4\u8f83\uff0c5 &lt; 6\uff0c\u63d2\u5165 \u2192 [5, 6, 11, 12, 13]</li> </ol>"},{"location":"blog/Computer%20Science/%E6%8E%92%E5%BA%8F%E5%92%8C%E6%9F%A5%E6%89%BE/#_17",
…
del.24.m.1.bias        torch.Size([21]) model.24.m.2.weight      torch.Size([21, 512, 1, 1]) model.24.m.2.bias        torch.Size([21])</p>"},{"location":"blog/MachineLearning/yolov5s%20%E7%BD%91%E7%BB%9C%E7%BB%93%E6%9E%84/#640-640-3","title":"\u8f93\u5165\u4e3a640* 640* 3\u65f6\uff0c\u5404\u5c42\u8f93\u51fa\u5f62\u72b6","text":""},{"location":"blog/MachineLearning/yolov5s%20%E7%BD%91%E7%BB%9C%E7%BB%93%E6%9E%84/#layer-typedepth-idx-output-shape-param","title":"Layer (type:depth-idx)                        Output Shape              Param","text":"<p>Model                                         [1, 25200, 7]             -- \u251c\u2500Sequential: 1-1                             --                        -- \u2502    \u2514\u2500Focus: 2-1                             [1, 32, 320, 320]         -- \u2502    \u2502    \u2514\u2500Conv: 3-1                         [1, 32, 320, 320]         (3,488) \u2502    \u2514\u2500Conv: 2-2                              [1, 64, 160, 160]         -- \u2502    \u2502    \u2514\u2500Conv2d: 3-2                       [1, 64, 160, 160]         (18,496) \u2502    \u2502    \u2514\u2500SiLU: 3-3                         [1, 64, 160, 160]         -- \u2502    \u2514\u2500C3: 2-3                                [1, 64, 160, 160]         -- \u2502    \u2502    \u2514\u2500Conv: 3-4                         [1, 32, 160, 160]         (2,080) \u2502    \u2502    \u2514\u2500Sequential: 3-5                   [1, 32, 160, 160]         (10,304) \u2502    \u2502    \u2514\u2500Conv: 3-6                         [1, 32, 160, 160]         (2,080) \u2502    \u2502    \u2514\u2500Conv: 3-7                         [1, 64, 160, 160]         (4,160) \u2502    \u2514\u2500Conv: 2-4                              [1, 128, 80, 80]          -- \u2502    \u2502    \u2514\u2500Conv2d: 3-8                       [1, 128, 80, 80]          (73,856) \u2502    \u2502    \u2514\u2500SiLU: 3-9                         [1, 128, 80, 80]          -- \u2502    \u2514\u2500C3: 2-5                                [1, 128, 80, 80]          -- \u2502    \u2502    \u2514\u2500Conv: 3-10                        [1, 64, 80, 80]           (8,256) \u2502    \u2502    \u2514\u2500Sequential: 3-11                  [1, 64, 80, 80]           (123,264) \u2502    \u2502    \u2514\u2500Conv: 3-12                        [1, 64, 80, 80]           (8,256) \u2502    \u2502    \u2514\u2500Conv: 3-13                        [1, 128, 80, 80]          (16,512) \u2502    \u2514\u2500Conv: 2-6                              [1, 256, 40, 40]          -- \u2502    \u2502    \u2514\u2500Conv2d: 3-14                      [1, 256, 40, 40]          (295,168) \u2502    \u2502    \u2514\u2500SiLU: 3-15                        [1, 256, 40, 40]          -- \u2502    \u2514\u2500C3: 2-7                                [1, 256, 40, 40]          -- \u2502    \u2502    \u2514\u2500Conv: 3-16                        [1, 128, 40, 40]          (32,896) \u2502    \u2502    \u2514\u2500Sequential: 3-17                  [1, 128, 40, 40]          (492,288) \u2502    \u2502    \u2514\u2500Conv: 3-18                        [1, 128, 40, 40]          (32,896) \u2502    \u2502    \u2514\u2500Conv: 3-19                        [1, 256, 40, 40]          (65,792) \u2502    \u2514\u2500Conv: 2-8                              [1, 512, 20, 20]          -- \u2502    \u2502    \u2514\u2500Conv2d: 3-20                      [1, 512, 20, 20]          (1,180,160) \u2502    \u2502    \u2514\u2500SiLU: 3-21                        [1, 512, 20, 20]          -- \u2502    \u2514\u2500SPP: 2-9                               [1, 512, 20, 20]          -- \u2502    \u2502    \u2514\u2500Conv: 3-22                        [1, 256, 20, 20]          (131,328) \u2502    \u2502    \u2514\u2500ModuleList: 3-23                  --                        -- \u2502    \u2502    \u2514\u2500Conv: 3-24                        [1, 512, 20, 20]          (524,800) \u2502    \u2514\u2500C3: 2-10                               [1, 512, 20, 20]          -- \u2502    \u2502    \u2514\u2500Conv: 3-25                        [1, 256, 20, 20]          (131,328) \u2502    \u2502    \u2514\u2500Sequential: 3-26                  [1, 256, 20, 20]          (655,872) \u2502    \u2502    \u2514\u2500Conv: 3-27                        [1, 256, 20, 20]          (131,328) \u2502    \u2502    \u2514\u2500Conv: 3-28                        [1, 512, 20, 20]          (262,656) \u2502    \u2514\u2500Conv: 2-11                             [1, 256, 20, 20]          -- \u2502    \u2502    \u2514\u2500Conv2d: 3-29                      [1, 256, 20, 20]          (131,328) \u2502    \u2502    \u2514\u2500SiLU: 3-30                        [1, 256, 20, 20]          -- \u2502    \u2514\u2500Upsample: 2-12                         [1, 256, 40, 40]          -- \u2502    \u2514\u2500Concat: 2-13                           [1, 512, 40, 40]          -- \u2502    \u2514\u2500C3: 2-14                               [1, 256, 40, 40]          -- \u2502    \u2502    \u2514\u2500Conv: 3-31                        [1, 128, 40, 40]          (65,664) \u2502    \u2502    \u2514\u2500Sequential: 3-32                  [1, 128, 40, 40]          (164,096) \u2502    \u2502    \u2514\u2500Conv: 3-33                        [1, 128, 40, 40]          (65,664) \u2502    \u2502    \u2514\u2500Conv: 3-34                        [1, 256, 40, 40]          (65,792) \u2502    \u2514\u2500Conv: 2-15                             [1, 128, 40, 40]          -- \u2502    \u2502    \u2514\u2500Conv2d: 3-35                      [1, 128, 40, 40]          (32,896) \u2502    \u2502    \u2514\u2500SiLU: 3-36                        [1, 128, 40, 40]          -- \u2502    \u2514\u2500Upsample: 2-16                         [1, 128, 80, 80]          -- \u2502    \u2514\u2500Concat: 2-17                           [1, 256, 80, 80]          -- \u2502    \u2514\u2500C3: 2-18                               [1, 128, 80, 80]          -- \u2502    \u2502    \u2514\u2500Conv: 3-37                        [1, 64, 80, 80]           (16,448) \u2502    \u2502    \u2514\u2500Sequential: 3-38                  [1, 64, 80, 80]           (41,088) \u2502    \u2502    \u2514\u2500Conv: 3-39                        [1, 64, 80, 80]           (16,448) \u2502    \u2502    \u2514\u2500Conv: 3-40                        [1, 128, 80, 80]          (16,512) \u2502    \u2514\u2500Conv: 2-19                             [1, 128, 40, 40]          -- \u2502    \u2502    \u2514\u2500Conv2d: 3-41                      [1, 128, 40, 40]          (147,584) \u2502    \u2502    \u2514\u2500SiLU: 3-42                        [1, 128, 40, 40]          -- \u2502    \u2514\u2500Concat: 2-20                           [1, 256, 40, 40]          -- \u2502    \u2514\u2500C3: 2-21                               [1, 256, 40, 40]          -- \u2502    \u2502    \u2514\u2500Conv: 3-43                        [1, 128, 40, 40]          (32,896) \u2502    \u2502    \u2514\u2500Sequential: 3-44                  [1, 128, 40, 40]          (164,096) \u2502    \u2502    \u2514\u2500Conv: 3-45                        [1, 128, 40, 40]          (32,896) \u2502    \u2502    \u2514\u2500Conv: 3-46                        [1, 256, 40, 40]          (65,792) \u2502    \u2514\u2500Conv: 2-22                             [1, 256, 20, 20]          -- \u2502    \u2502    \u2514\u2500Conv2d: 3-47                      [1, 256, 20, 20]          (590,080) \u2502    \u2502    \u2514\u2500SiLU: 3-48                        [1, 256, 20, 20]          -- \u2502    \u2514\u2500Concat: 2-23                           [1, 512, 20, 20]          -- \u2502    \u2514\u2500C3: 2-24                               [1, 512, 20, 20]          -- \u2502    \u2502    \u2514\u2500Conv: 3-49                        [1, 256, 20, 20]          (131,328) \u2502    \u2502    \u2514\u2500Sequential: 3-50                  [1, 256, 20, 20]          (655,872) \u2502    \u2502    \u2514\u2500Conv: 3-51                        [1, 256, 20, 20]          (131,328) \u2502    \u2502    \u2514\u2500Conv: 3-52                        [1, 512, 20, 20]          (262,656) \u2502    \u2514\u2500Detect: 2-25                           [1, 25200, 7]             --</p>"},{"location":"blog/MachineLearning/yolov5s%20%E7%BD%91%E7%BB%9C%E7%BB%93%E6%9E%84/#modulelist-3-53-18879","title":"\u2502    \u2502    \u2514\u2500ModuleList: 3-53                  --                        (18,879)","text":"2026-01-012026-01-01"},{"location":"blog/MachineLearning/%E5%85%AC%E5%BC%8F%E6%B5%8B%E8%AF%95/","title":"\u516c\u5f0f\u6d4b\u8bd5","text":"<p>\ud83d\udcdd \u81ea\u52a8\u
…
