…
del.24.m.2.weight      torch.Size([21, 512, 1, 1]) model.24.m.2.bias        torch.Size([21])</p>"},{"location":"blog/MachineLearning/yolov5s%20%E7%BD%91%E7%BB%9C%E7%BB%93%E6%9E%84/#640-640-3","title":"\u8f93\u5165\u200b\u4e3a\u200b640* 640* 3\u200b\u65f6\u200b\uff0c\u200b\u5404\u5c42\u200b\u8f93\u51fa\u200b\u5f62\u72b6","text":""},{"location":"blog/MachineLearning/yolov5s%20%E7%BD%91%E7%BB%9C%E7%BB%93%E6%9E%84/#layer-typedepth-idx-output-shape-param","title":"Layer (type:depth-idx)                        Output Shape              Param","text":"<p>Model                                         [1, 25200, 7]             -- \u251c\u2500Sequential: 1-1                             --                        -- \u2502    \u2514\u2500Focus: 2-1                             [1, 32, 320, 320]         -- \u2502    \u2502    \u2514\u2500Conv: 3-1                         [1, 32, 320, 320]         (3,488) \u2502    \u2514\u2500Conv: 2-2                              [1, 64, 160, 160]         -- \u2502    \u2502    \u2514\u2500Conv2d: 3-2                       [1, 64, 160, 160]         (18,496) \u2502    \u2502    \u2514\u2500SiLU: 3-3                         [1, 64, 160, 160]         -- \u2502    \u2514\u2500C3: 2-3                                [1, 64, 160, 160]         -- \u2502    \u2502    \u2514\u2500Conv: 3-4                         [1, 32, 160, 160]         (2,080) \u2502    \u2502    \u2514\u2500Sequential: 3-5                   [1, 32, 160, 160]         (10,304) \u2502    \u2502    \u2514\u2500Conv: 3-6                         [1, 32, 160, 160]         (2,080) \u2502    \u2502    \u2514\u2500Conv: 3-7                         [1, 64, 160, 160]         (4,160) \u2502    \u2514\u2500Conv: 2-4                              [1, 128, 80, 80]          -- \u2502    \u2502    \u2514\u2500Conv2d: 3-8                       [1, 128, 80, 80]          (73,856) \u2502    \u2502    \u2514\u2500SiLU: 3-9                         [1, 128, 80, 80]          -- \u2502    \u2514\u2500C3: 2-5                                [1, 128, 80, 80]          -- \u2502    \u2502    \u2514\u2500Conv: 3-10                        [1, 64, 80, 80]           (8,256) \u2502    \u2502    \u2514\u2500Sequential: 3-11                  [1, 64, 80, 80]           (123,264) \u2502    \u2502    \u2514\u2500Conv: 3-12                        [1, 64, 80, 80]           (8,256) \u2502    \u2502    \u2514\u2500Conv: 3-13                        [1, 128, 80, 80]          (16,512) \u2502    \u2514\u2500Conv: 2-6                              [1, 256, 40, 40]          -- \u2502    \u2502    \u2514\u2500Conv2d: 3-14                      [1, 256, 40, 40]          (295,168) \u2502    \u2502    \u2514\u2500SiLU: 3-15                        [1, 256, 40, 40]          -- \u2502    \u2514\u2500C3: 2-7                                [1, 256, 40, 40]          -- \u2502    \u2502    \u2514\u2500Conv: 3-16                        [1, 128, 40, 40]          (32,896) \u2502    \u2502    \u2514\u2500Sequential: 3-17                  [1, 128, 40, 40]          (492,288) \u2502    \u2502    \u2514\u2500Conv: 3-18                        [1, 128, 40, 40]          (32,896) \u2502    \u2502    \u2514\u2500Conv: 3-19                        [1, 256, 40, 40]          (65,792) \u2502    \u2514\u2500Conv: 2-8                              [1, 512, 20, 20]          -- \u2502    \u2502    \u2514\u2500Conv2d: 3-20                      [1, 512, 20, 20]          (1,180,160) \u2502    \u2502    \u2514\u2500SiLU: 3-21                        [1, 512, 20, 20]          -- \u2502    \u2514\u2500SPP: 2-9                               [1, 512, 20, 20]          -- \u2502    \u2502    \u2514\u2500Conv: 3-22                        [1, 256, 20, 20]          (131,328) \u2502    \u2502    \u2514\u2500ModuleList: 3-23                  --                        -- \u2502    \u2502    \u2514\u2500Conv: 3-24                        [1, 512, 20, 20]          (524,800) \u2502    \u2514\u2500C3: 2-10                               [1, 512, 20, 20]          -- \u2502    \u2502    \u2514\u2500Conv: 3-25                        [1, 256, 20, 20]          (131,328) \u2502    \u2502    \u2514\u2500Sequential: 3-26                  [1, 256, 20, 20]          (655,872) \u2502    \u2502    \u2514\u2500Conv: 3-27                        [1, 256, 20, 20]          (131,328) \u2502    \u2502    \u2514\u2500Conv: 3-28                        [1, 512, 20, 20]          (262,656) \u2502    \u2514\u2500Conv: 2-11                             [1, 256, 20, 20]          -- \u2502    \u2502    \u2514\u2500Conv2d: 3-29                      [1, 256, 20, 20]          (131,328) \u2502    \u2502    \u2514\u2500SiLU: 3-30                        [1, 256, 20, 20]          -- \u2502    \u2514\u2500Upsample: 2-12                         [1, 256, 40, 40]          -- \u2502    \u2514\u2500Concat: 2-13                           [1, 512, 40, 40]          -- \u2502    \u2514\u2500C3: 2-14                               [1, 256, 40, 40]          -- \u2502    \u2502    \u2514\u2500Conv: 3-31                        [1, 128, 40, 40]          (65,664) \u2502    \u2502    \u2514\u2500Sequential: 3-32                  [1, 128, 40, 40]          (164,096) \u2502    \u2502    \u2514\u2500Conv: 3-33                        [1, 128, 40, 40]          (65,664) \u2502    \u2502    \u2514\u2500Conv: 3-34                        [1, 256, 40, 40]          (65,792) \u2502    \u2514\u2500Conv: 2-15                             [1, 128, 40, 40]          -- \u2502    \u2502    \u2514\u2500Conv2d: 3-35                      [1, 128, 40, 40]          (32,896) \u2502    \u2502    \u2514\u2500SiLU: 3-36                        [1, 128, 40, 40]          -- \u2502    \u2514\u2500Upsample: 2-16                         [1, 128, 80, 80]          -- \u2502    \u2514\u2500Concat: 2-17                           [1, 256, 80, 80]          -- \u2502    \u2514\u2500C3: 2-18                               [1, 128, 80, 80]          -- \u2502    \u2502    \u2514\u2500Conv: 3-37                        [1, 64, 80, 80]           (16,448) \u2502    \u2502    \u2514\u2500Sequential: 3-38                  [1, 64, 80, 80]           (41,088) \u2502    \u2502    \u2514\u2500Conv: 3-39                        [1, 64, 80, 80]           (16,448) \u2502    \u2502    \u2514\u2500Conv: 3-40                        [1, 128, 80, 80]          (16,512) \u2502    \u2514\u2500Conv: 2-19                             [1, 128, 40, 40]          -- \u2502    \u2502    \u2514\u2500Conv2d: 3-41                      [1, 128, 40, 40]          (147,584) \u2502    \u2502    \u2514\u2500SiLU: 3-42                        [1, 128, 40, 40]          -- \u2502    \u2514\u2500Concat: 2-20                           [1, 256, 40, 40]          -- \u2502    \u2514\u2500C3: 2-21                               [1, 256, 40, 40]          -- \u2502    \u2502    \u2514\u2500Conv: 3-43                        [1, 128, 40, 40]          (32,896) \u2502    \u2502    \u2514\u2500Sequential: 3-44                  [1, 128, 40, 40]          (164,096) \u2502    \u2502    \u2514\u2500Conv: 3-45                        [1, 128, 40, 40]          (32,896) \u2502    \u2502    \u2514\u2500Conv: 3-46                        [1, 256, 40, 40]          (65,792) \u2502    \u2514\u2500Conv: 2-22                             [1, 256, 20, 20]          -- \u2502    \u2502    \u2514\u2500Conv2d: 3-47                      [1, 256, 20, 20]          (590,080) \u2502    \u2502    \u2514\u2500SiLU: 3-48                        [1, 256, 20, 20]          -- \u2502    \u2514\u2500Concat: 2-23                           [1, 512, 20, 20]          -- \u2502    \u2514\u2500C3: 2-24                               [1, 512, 20, 20]          -- \u2502    \u2502    \u2514\u2500Conv: 3-49                        [1, 256, 20, 20]          (131,328) \u2502    \u2502    \u2514\u2500Sequential: 3-50                  [1, 256, 20, 20]          (655,872) \u2502    \u2502    \u2514\u2500Conv: 3-51                        [1, 256, 20, 20]          (131,328) \u2502    \u2502    \u2514\u2500Conv: 3-52                        [1, 512, 20, 20]          (262,656) \u2502    \u2514\u2500Detect: 2-25                           [1, 25200, 7]             --</p>"},{"location":"blog/MachineLearning/yolov5s%20%E7%BD%91%E7%BB%9C%E7%BB%93%E6%9E%84/#modulelist-3-53-18879","title":"\u2502    \u2502    \u2514\u2500ModuleList: 3-53                  --                        (18,879)","text":""},{"location":"blog/MachineLearning/%E5%85%AC%E5%BC%8F%E6%B5%8B%E8%AF%95/","title":"\u516c\u5f0f\u200b\u6d4b\u8bd5","text":"<p>\ud83d\udcbe AI\u200b\u667a\u80fd\u200b\u
…
